Chapter 3: Computer Vision and Convolutional Neural Networks/~/PycharmProjects/Models/CNNModelFromCourse(state_dict).pth (torch, 35957 bytes, 10 tensors)

cnn_layers1.0.weight f4 [10, 1, 3, 3]
0	0x3e983da5	0.2973453
1	0x3c968263	0.01837272
2	0xbf10a7f9	-0.56506306
3	0x3efa9a1c	0.489457
4	0xbdd2fd5f	-0.10302233
5	0x3d2249ee	0.039621286
6	0xbf220c4e	-0.63300025
7	0xbe8b5dfe	-0.27220148
8	0xbdddc15f	-0.10827898
9	0xbf55fb8a	-0.83586943
10	0x3e9e9c25	0.30978504
11	0x3df2c278	0.11853498
12	0xbe4c128b	-0.19928949
13	0x3f891888	1.0710611
14	0x3ec0ad2e	0.37632126
15	0xbe8341a3	-0.25636014
16	0x3c96f6ea	0.018428285
17	0x3e3a2e6a	0.18181768
18	0xbdc40bb4	-0.09572545
19	0x3f263112	0.64918625
20	0xbc99b0e8	-0.018761113
21	0xbfc3e03d	-1.5302807
22	0xbead6a03	-0.33869943
23	0x3f61a2fc	0.8813932
24	0xc019b84f	-2.4018743
25	0xbf213bc4	-0.6298182
26	0x3e7fa397	0.24964748
27	0xbfa3e31e	-1.2803686
28	0xc016e9be	-2.3580165
29	0xbffd9278	-1.9810324
30	0x3e993421	0.29922584
31	0xbfacac3e	-1.3490064
32	0x3d0bb363	0.034106623
33	0x3e943fd4	0.28954947
34	0x3ec299d3	0.38007984
35	0x3dced542	0.100992694
36	0x3e89c5f9	0.26908854
37	0xbd9988d3	-0.074968
38	0xbe7f09a0	-0.24906015
39	0xbe94deb5	-0.29076162
40	0x3f74ad0f	0.95576566
41	0xbf386404	-0.7202761
42	0x3eec46c1	0.4614773
43	0x3f413d26	0.7548393
44	0xbf34c79e	-0.7061709
45	0xbe33c661	-0.17556144
46	0x3e110a30	0.14164042
47	0x3e83ac3c	0.25717342
48	0x3ea6fcc4	0.3261472
49	0xbee8b0af	-0.454473
50	0xbdfeabd3	-0.124351166
51	0xbf20d459	-0.62824017
52	0xbf2904e1	-0.6602307
53	0x3f59a2da	0.85014117
54	0xbabd15dc	-0.001442607
55	0x3ee78a7e	0.4522285
56	0x3d9950aa	0.074860886
57	0x3f23e044	0.6401408
58	0x3dd75b86	0.105155036
59	0xbf980127	-1.1875352
60	0xbc7ec10d	-0.015548957
61	0xbf9f257b	-1.2433313
62	0xbf74a6e1	-0.95567137
63	0x3ed3df6e	0.413814
64	0x3eb5c7ff	0.35504147
65	0xbf111f2d	-0.56688195
66	0x3ebbf4df	0.3671026
67	0xbdf01487	-0.11722665
68	0xbfb640b1	-1.4238492
69	0xbe674593	-0.22585134
70	0x3fb07de0	1.3788414
71	0xbe4d091e	-0.20023009
72	0x3f78aa2d	0.9713467
73	0xbf03b54c	-0.5144851
74	0xbefe7528	-0.49698758
75	0xbf3bb230	-0.7331877
76	0xbf5b7550	-0.8572588
77	0xbe57d496	-0.21077189
78	0x3f09f269	0.53885514
79	0x3f81820a	1.011781
80	0xbe81e368	-0.2536881
81	0xbe68b0c7	-0.22723685
82	0x3e2bdf0d	0.16784306
83	0xbe11903b	-0.14215176
84	0x3e461314	0.19343215
85	0xbdafe8cd	-0.08589325
86	0x3e37ffa6	0.17968616
87	0xbe8546f6	-0.260307
88	0xbe2d9e43	-0.16954903
89	0x3dc3a7dc	0.09553501

cnn_layers1.0.bias f4 [10]
0	0xbe308bac	-0.1724078
1	0xbdb377b9	-0.0876307
2	0x3e544669	0.20729984
3	0x3e92ac4e	0.28647083
4	0xbd860314	-0.06543556
5	0xbdd06e4a	-0.10177286
6	0x3ebc7ce8	0.36814046
7	0xbf06a6d0	-0.52598286
8	0xbe95d8ee	-0.29267067
9	0xbeaace74	-0.33360636

cnn_layers1.2.weight f4 [10, 10, 3, 3]
0	0xbe3aa036	-0.18225178
1	0xbe008711	-0.12551524
2	0xbd06a5d4	-0.03287299
3	0xbdb3cead	-0.08779655
4	0xbebd740c	-0.370026
5	0xbe70ef09	-0.23528685
6	0xbe75917e	-0.23981282
7	0xbe93205a	-0.2873562
8	0xbe874b72	-0.26424748
9	0xbe372612	-0.17885616
10	0xbe33dce1	-0.17564727
11	0xbce31f56	-0.027724903
12	0xbd37b7b9	-0.044852946
13	0xbea2da41	-0.3180714
14	0xbdb2907c	-0.087189645
15	0xbbb67604	-0.005568268
16	0xbea4d390	-0.3219266
17	0xbe091f69	-0.13390888
18	0xbf064d60	-0.52461815
19	0x3df6b634	0.12046471
20	0x3f0a3eef	0.5400228
21	0xbdab3fa8	-0.08361751
22	0x3e003c84	0.12523085
23	0x3f03ab2d	0.5143307
24	0x3e31b052	0.17352417
25	0xbe779216	-0.24176821
26	0xbe5edbe9	-0.21763577
27	0xbef98488	-0.48733926
28	0xbe0652d5	-0.13117535
29	0x3e11d641	0.14241888
30	0x3cb88e48	0.022528782
31	0x3f3bbea7	0.7333779
32	0x3e0b72ac	0.13617963
33	0x3eed2b30	0.46322012
34	0x3e31576f	0.1731851
35	0x3e504049	0.20337023
36	0x3db9a085	0.0906382
37	0xbdbb51c3	-0.09146454
38	0xbcb6edf4	-0.022330262
39	0xbd9dd07a	-0.077057794
40	0xbbddbac6	-0.00676665
41	0xbec21f1a	-0.37914354
42	0xbb847a4f	-0.0040429006
43	0xbdaa71fd	-0.08322523
44	0xbead4411	-0.33840993
45	0xbe0ec9db	-0.13944189
46	0x3d4bbaf4	0.04973884
47	0xbddbdb2d	-0.10735164
48	0x3e28558f	0.16438888
49	0xbd8bfb14	-0.06834999
50	0xbc256dc5	-0.010096972
51	0xbd818853	-0.0632483
52	0xbe0b5be6	-0.13609275
53	0x3b61d25a	0.0034457655
54	0x3ec6db76	0.3883931
55	0xbe6782a4	-0.22608429
56	0xbe9ffc7f	-0.31247327
57	0x3e973ece	0.29540104
58	0x3e9bd587	0.30436346
59	0xbe35d508	-0.17757046
60	0xbd293f02	-0.041319855
61	0x3dea8e23	0.11452892
62	0xbe23751f	-0.15962647
63	0xbe857990	-0.26069307
64	0x3d35287b	0.04422806
65	0xbdd6b4eb	-0.10483726
66	0x3de7a595	0.11310879
67	0x3d8db9d1	0.06920207
68	0xbd73f728	-0.05956188
69	0xbe3eb774	-0.1862467
70	0xbb209a74	-0.0024506124
71	0xbe2346a0	-0.1594491
72	0x3e235637	0.15950857
73	0x3d4a9ff4	0.04946895
74	0xbd9a0545	-0.07520536
75	0xbe85d00c	-0.2613529
76	0xbe3b21e5	-0.18274648
77	0xbe9628e2	-0.29328066
78	0xbe9a8a37	-0.30183575
79	0xbe05c435	-0.13063128
80	0xbe5eecd9	-0.21770038
81	0x3d5f1472	0.054462858
82	0x3c9ff56d	0.019526208
83	0xbd1a7d26	-0.037717007
84	0x3d615a1b	0.055017572
85	0x3d62e4f2	0.05539412
86	0x3d21f7e5	0.03954305
87	0xbc97e64c	-0.018542431
88	0xbce4a84e	-0.027912285
89	0x3c38b267	0.011273003
90	0x3b8a8c35	0.0042281398
91	0xbe1fcecc	-0.1560623
92	0xbd94af1f	-0.07259964
93	0x3e5b1f62	0.2139869
94	0xbca7cdeb	-0.020483932
95	0xbe35349c	-0.1769585
96	0x3e1630fc	0.14667124
97	0x3d8503ab	0.0649484
98	0xbd7e26f2	-0.06204886
99	0xbdd4ddd3	-0.10393872
100	0xbec5e3ac	-0.38650262
101	0xbe9c1a20	-0.30488682
102	0x3ea7778c	0.32708395
103	0x3de19ce2	0.11016251
104	0xbe7accae	-0.24492142
105	0x3ec657a4	0.3873874
106	0x3dbe59c2	0.09294464
107	0xbeef9c72	-0.46799046
108	0xbe157e68	-0.14599001
109	0xbcee4bae	-0.029088821
110	0x3dbd580b	0.092453085
111	0x3dcb9ac8	0.099416316
112	0xbe1ba808	-0.15200818
113	0xbcc69f85	-0.024245987
114	0x3cf91f24	0.030410357
115	0x3d871591	0.0659591
116	0xbe10e0bf	-0.14148234
117	0xbd7fcd42	-0.06245161
118	0xbe03f932	-0.12888029
119	0x3e95e35a	0.29275018
120	0xbea53e67	-0.32274172
121	0x3dd98846	0.10621695
122	0x3d43f4c2	0.04784084
123	0xbe1d2255	-0.15345128
124	0xbe277c4e	-0.16356012
125	0x3cec1ecb	0.028823277
126	0x3e44cfe3	0.19219927
127	0xbda0843e	-0.07837723
128	0xbf20210d	-0.6255043
129	0xbe70a32c	-0.23499745
130	0x3e18675b	0.14883177
131	0x3dafff9d	0.08593676
132	0xbeadd086	-0.33948153
133	0x3ef1f6c3	0.47258577
134	0x3eb0e391	0.3454862
135	0x3cddb2e6	0.027062844
136	0x3cb4dd19	0.022078084
137	0x3c47d82f	0.012197538
138	0xbdb2da87	-0.08733087
139	0xbd9356d2	-0.07194294
140	0x3d0055fb	0.031331997
141	0xbd1584ea	-0.03650371
142	0xbd80d31b	-0.06290265
143	0xbdc84998	-0.09779662
144	0xbd1d554e	-0.03841143
145	0xbd8c2037	-0.06842082
146	0x3e2c854a	0.1684772
147	0x3e13b1c7	0.14423285
148	0x3e47ce47	0.19512282
149	0x3e8ab329	0.27089813
150	0xbde83c82	-0.11339666
151	0xbe1afe79	-0.15136136
152	0xbe090ebe	-0.1338453
153	0xbd3f9d0f	-0.046780642
154	0xbe8da305	-0.27663437
155	0xbe2b1d46	-0.16710386
156	0xbcb171c2	-0.02166069
157	0xbc606c59	-0.013697707
158	0x3e2a75b4	0.16646463
159	0x3d561e1f	0.05227482
160	0x3e3ffdad	0.18749113
161	0x3ea20b10	0.31649065
162	0x3e6b2e63	0.22966914
163	0x3bd97866	0.006636667
164	0xbc9e49c4	-0.019322284
165	0xbe26751c	-0.16255611
166	0xbd4f2a87	-0.050577667
167	0x3df63066	0.1202095
168	0xbd394711	-0.04523379
169	0x3d1a6410	0.037693083
170	0x3e693c7e	0.22776982
171	0xbdd66573	-0.10468569
172	0x3d8604b1	0.065438636
173	0x3da137db	0.07871982
174	0x3dcbe96f	0.09956633
175	0xbccb6b17	-0.024831338
176	0xbdb1ca87	-0.08681207
177	0x3cc06be3	0.023488944
178	0x3d6f8588	0.058476955
179	0xbdd70e84	-0.105008155
180	0xbcf3259b	-0.029681018
181	0xbd7960bc	-0.06088327
182	0xbc40592c	-0.01174001
183	0xbd6a6619	-0.057226274
184	0xbd3b795c	-0.045770034
185	0xbd1ddbc2	-0.038539656
186	0xbde36357	-0.11102932
187	0x3db068f9	0.08613772
188	0x3da89f9c	0.08233568
189	0xbd9dcc59	-0.07704992
190	0xbd12bf08	-0.035826713
191	0xbdda709b	-0.10666009
192	0xbe0ed6ea	-0.1394917
193	0xbe112d09	-0.14177336
194	0xbd637b81	-0.055537704
195	0xbd6a93da	-0.05726991
196	0xbd9ecd02	-0.07753946
197	0xbd9e0af5	-0.07716934
198	0xbceaf4fc	-0.02868127
199	0xbcdf81d9	-0.027283596
200	0xbb7112bf	-0.0036784855
201	0xbd59940f	-0.053119715
202	0xbdd62a60	-0.10457301
203	0xbcd3c5bf	-0.025851129
204	0xbded23ac	-0.115790695
205	0x3d5dc1ba	0.05413983
206	0xbdc842db	-0.09778377
207	0xbdd5254b	-0.10407504
208	0xbd4731e2	-0.048631556
209	0xbdc1c3a8	-0.094611466
210	0x3e98e07b	0.29858765
211	0x3e049142	0.12946036
212	0xbdb57015	-0.088592686
213	0x3db7423b	0.08948179
214	0x3e82d82d	0.25555554
215	0x3e4d0df2	0.20024851
216	0xbbc25211	-0.0059301932
217	0x3cb9bbf4	0.02267263
218	0xbd91545a	-0.07096167
219	0x3d499043	0.049209844
220	0xbcd5bde5	-0.026091525
221	0xbd40d299	-0.04707584
222	0x3e158f78	0.1460551
223	0x3dd01b61	0.10161472
224	0xbdb41cf2	-0.087945834
225	0xbda7c95b	-0.081927024
226	0xbdb4b655	-0.088238396
227	0xbdc612b5	-0.09671537
228	0xbd9cfeca	-0.07665785
229	0xbd2cee5e	-0.042219512
230	0x3db63036	0.08895914
231	0x3d056260	0.03256452
232	0xbd6d9ded	-0.058011938
233	0xbdb39116	-0.08767907
234	0x3c887fd0	0.016662508
235	0xbdae3575	-0.0850629
236	0xbd8cda96	-0.068776295
237	0xbd98c44e	-0.07459317
238	0xbdc936a6	-0.098248765
239	0xbd626182	-0.055268772
240	0xbd884abc	-0.066548795
241	0xbd822816	-0.06355302
242	0xbdb8b4bd	-0.09018848
243	0xbdca891b	-0.09889432
244	0xbdd0ffd2	-0.10205044
245	0xbd7ed8d9	-0.06221852
246	0x3e6cc8da	0.23123494
247	0xbd9d9593	-0.07694545
248	0xbd8e6684	-0.06953147
249	0x3c5ec773	0.013597357
250	0x3d775b76	0.06038996
251	0x3e005d73	0.12535648
252	0x3e16f44a	0.14741626
253	0x372dd84e	1.0361966e-05
254	0xbdfcfeda	-0.123532966
255	0x3e698795	0.22805627

cnn_layers1.2.bias f4 [10]
0	0xbe60cb4a	-0.21952549
1	0xbe2f8e87	-0.17144214
2	0xbe3d6dcd	-0.18498917
3	0x3f215c72	0.63031685
4	0xba83fed8	-0.0010070456
5	0x3e80ba36	0.25142068
6	0xbdbe5315	-0.092931904
7	0x3e84f024	0.25964463
8	0xbb1b1a64	-0.0023666853
9	0x3d8495ea	0.06473906

cnn_layers2.0.weight f4 [10, 10, 3, 3]
0	0xbe42c61f	-0.1902089
1	0x3d80df0d	0.062925436
2	0xbe1bc694	-0.1521247
3	0xbdde6845	-0.108597316
4	0x3dfdab15	0.12386147
5	0x3de0df5a	0.10980101
6	0xbb73e3dd	-0.0037214675
7	0xbd7f2d39	-0.062298987
8	0xbd3e53dd	-0.046466697
9	0xbcd871d7	-0.02642147
10	0xbdb7f003	-0.089813255
11	0xbe139f22	-0.14416173
12	0x3de44e2f	0.11147725
13	0x3d72f38f	0.059314307
14	0xbe0342c2	-0.12818435
15	0x3e13d5c4	0.14437014
16	0x3e3378a2	0.17526487
17	0x3de98d9c	0.11403963
18	0x3c9d3c84	0.019193895
19	0xbe3b3d7a	-0.1828517
20	0x3c806ed4	0.015677847
21	0x3e4b4461	0.19850303
22	0x3dada30b	0.084783636
23	0xbde79ac2	-0.113088146
24	0x3d023bfc	0.031795487
25	0x3e3b12e0	0.18268919
26	0x3e41306b	0.18866126
27	0xbe6ffd7a	-0.23436537
28	0xbea38258	-0.31935382
29	0x3dd34877	0.10316556
30	0x3dbaa987	0.09114366
31	0x3e8180af	0.2529349
32	0x3eaec0fe	0.34131616
33	0x3dc6af40	0.09701395
34	0xbdca4c4e	-0.09877835
35	0x3d0322da	0.03201566
36	0x3d8a2e74	0.067471415
37	0xbec4f15a	-0.38465387
38	0xbcc64192	-0.024201188
39	0xbdd089ae	-0.1018251
40	0x3da9ceab	0.08291372
41	0xbd90ad09	-0.07064254
42	0xbe373b27	-0.17893659
43	0xbd2de5a6	-0.042455338
44	0x3e05554a	0.13020816
45	0x3e3eab6a	0.18620077
46	0x3dd98730	0.10621488
47	0x3daed813	0.08537307
48	0xbf1f5fa1	-0.62255293
49	0xbe3fc42d	-0.18727179
50	0xbdb01a0a	-0.085987166
51	0xbc81bb9e	-0.015836533
52	0x3db59f50	0.08868277
53	0xbe072ad0	-0.13199925
54	0xbe85f2db	-0.26161847
55	0xbd4a5f2c	-0.04940717
56	0xbe91c96a	-0.2847398
57	0xbe287fef	-0.16455053
58	0xbd0696a0	-0.03285849
59	0xbd1e5590	-0.038655818
60	0x3e2d7afc	0.16941446
61	0x3e63919a	0.22223511
62	0xbe19ce41	-0.15020086
63	0xbd02500c	-0.03181462
64	0xbd860f0b	-0.06545838
65	0x3d391a2d	0.04519098
66	0xbec61dd3	-0.3869463
67	0x3d327b61	0.043574695
68	0x3c9ac696	0.018893521
69	0xbe826b53	-0.25472507
70	0xbd58d376	-0.05293604
71	0x3e7c8ff3	0.24664287
72	0x3e2d7cfd	0.1694221
73	0x3d2f26e9	0.042761717
74	0xbe9aa0c4	-0.3020078
75	0x3e17fca2	0.14842466
76	0x3eaab70a	0.33342773
77	0xbe800e47	-0.25010893
78	0x3e5aa24c	0.21350974
79	0xbe80855f	-0.25101754
80	0xbe038604	-0.12844092
81	0x3ca02007	0.019546522
82	0xbf41948d	-0.75617296
83	0xbccded41	-0.025137546
84	0x3dccb936	0.09996264
85	0xbec1c884	-0.37848294
86	0xbda099fb	-0.078418694
87	0x3f17b6b1	0.5926314
88	0x3e9b14f6	0.3028943
89	0x3f062bc3	0.52410525
90	0xbecb2abd	-0.39681044
91	0xbf14f67a	-0.58188593
92	0xbebe7d6f	-0.37205073
93	0xbec40bcd	-0.38290253
94	0xbf10fec9	-0.5663877
95	0x3f0054be	0.50129306
96	0xbe32db96	-0.17466578
97	0x3f6eb347	0.93242306
98	0x3ea3a8d2	0.31964737
99	0x3dedda00	0.11613846
100	0xbe1e54dc	-0.15462059
101	0xbe7b6a8d	-0.24552365
102	0xbe261413	-0.16218595
103	0xbeafbe2a	-0.3432477
104	0x3d48fc09	0.049068484
105	0x3e7a11f1	0.24420907
106	0x3d363afe	0.044489853
107	0x3d647dac	0.055783913
108	0x3e01efba	0.12689105
109	0x3dddced6	0.108304664
110	0xbdf6fb28	-0.12059623
111	0xbdb5daca	-0.08879621
112	0xbd85e827	-0.0653842
113	0xbe4ebea9	-0.20189919
114	0xbdbba8af	-0.09163033
115	0xbe20d71d	-0.15707059
116	0x3e70108c	0.23443812
117	0xbd64e7ba	-0.055885054
118	0x3dff3ae0	0.124624014
119	0x3e38c5b9	0.18044175
120	0x3e886729	0.26641205
121	0x3ea28d85	0.31748596
122	0x3d57746f	0.052601274
123	0xbea8894f	-0.32917258
124	0xbe025aac	-0.12729901
125	0xbeeb4eff	-0.45958707
126	0x3eb24bb2	0.34823376
127	0x3e404708	0.18777096
128	0xbdc14857	-0.09437626
129	0xbc79869a	-0.015229845
130	0x3dd732fb	0.10507771
131	0xbedbcaa0	-0.42928028
132	0xbd64ce0e	-0.05586057
133	0xbedcea4c	-0.43147504
134	0xbe61cd0b	-0.22050874
135	0xbd26237c	-0.040561184
136	0xbddfab79	-0.10921378
137	0xbeb6368f	-0.355885
138	0x3e7eb653	0.24874239
139	0x3f09600e	0.5366219
140	0x3e1721f7	0.1475905
141	0x3dba7fe1	0.09106422
142	0xbe89c73f	-0.26909825
143	0xbe7063f1	-0.23475625
144	0x3c78f9a8	0.015196241
145	0x3e39e3be	0.18153283
146	0x3e8b4f83	0.272091
147	0xbcbe31dd	-0.023217136
148	0xbcdbc70c	-0.026828311
149	0xbe922328	-0.28542447
150	0x3b56697d	0.0032716685
151	0x3df52c1b	0.11971303
152	0xbe77905f	-0.24176167
153	0x3e14bad9	0.14524402
154	0xbe0ca5db	-0.13735144
155	0x3d12db4d	0.035853673
156	0x3df05276	0.11734478
157	0x3e67bdd0	0.22631001
158	0x3e7e297a	0.2482051
159	0x3ebcc327	0.3686764
160	0xbeb66721	-0.35625556
161	0xbf4c8142	-0.7988473
162	0x3da972d0	0.08273852
163	0xbdab017d	-0.08349893
164	0x3d424496	0.04742869
165	0xbe2dd009	-0.1697389
166	0x3f06af48	0.5261121
167	0x3daffbec	0.08592972
168	0x3e874158	0.2641704
169	0x3da613a4	0.08109215
170	0xbf02a089	-0.5102621
171	0x3e698a18	0.22806585
172	0xbe49fb95	-0.19724877
173	0xbe134c6e	-0.14384624
174	0x3db8ec62	0.090294614
175	0xbf6adb16	-0.9174055
176	0x3e3290a6	0.17437991
177	0xbec5f2f0	-0.3866191
178	0x3d164e02	0.036695488
179	0x3e129565	0.14314802
180	0x3d07dd40	0.033169985
181	0x3e5e2d1c	0.21696895
182	0xbeeb89ca	-0.46003562
183	0xbe81046c	-0.25198686
184	0xbdd8b529	-0.105814286
185	0xbe936ebc	-0.2879542
186	0xbf1df506	-0.61702
187	0xbefea285	-0.49733368
188	0x3ec341d7	0.3813617
189	0x3e56d6da	0.20980397
190	0xbe4877b5	-0.19576915
191	0xbebd2843	-0.3694478
192	0xbd990d1c	-0.074732035
193	0xbe695343	-0.22785668
194	0xbee8ccad	-0.45468655
195	0xbdd98da8	-0.10622722
196	0xbdf4782c	-0.119369835
197	0xbed0d0d4	-0.40784323
198	0x3e1532aa	0.14570108
199	0x3c1ce6d6	0.00957652
200	0x3dba2fce	0.09091149
201	0xbcc9078e	-0.024539735
202	0x3df553e7	0.11978894
203	0xbd1513b2	-0.036395736
204	0xbdb780f6	-0.08960144
205	0x3de9bf9d	0.114135005
206	0x3dcdf9a1	0.100573786
207	0xbdefa0a1	-0.117005594
208	0xbb5e1a95	-0.0033890356
209	0x3ec6c9a8	0.38825727
210	0xbe8f12da	-0.2794407
211	0x3da84e66	0.08218078
212	0x3f0f291b	0.55922097
213	0xbeec0eda	-0.4610508
214	0x3dfa45a6	0.12220316
215	0xbeb2269c	-0.34795082
216	0x3a4c32f9	0.0007789578
217	0x3e0a3b60	0.13499212
218	0x3e509f81	0.20373346
219	0xbe8a1dc4	-0.26975834
220	0xbd9f48eb	-0.0777758
221	0x3ea76f59	0.3270214
222	0xbf0d7950	-0.55263233
223	0xbdf2a97e	-0.11848734
224	0xbe32414a	-0.17407718
225	0xbd9a254e	-0.075266466
226	0xbf0714d6	-0.5276617
227	0xbe69821e	-0.22803542
228	0xbd535364	-0.0515932
229	0x3df0e190	0.11761773
230	0xbe0a6150	-0.13513684
231	0xbdd1237a	-0.10211845
232	0x3f190081	0.59766394
233	0x3cdb0345	0.026734957
234	0x3dc8dd73	0.09807863
235	0x3e77bf86	0.24194154
236	0xbd8ace6c	-0.06777653
237	0xbebcaaa1	-0.3684893
238	0xbe70b542	-0.23506644
239	0x3eb07c1a	0.34469682
240	0xbf8b4a29	-1.0882007
241	0xbe85e62f	-0.2615218
242	0xbdcb6ba8	-0.09932643
243	0xbeb311d1	-0.3497453
244	0xbe3f9bcc	-0.18711776
245	0x3db86db9	0.09005303
246	0xbc9f5029	-0.019447403
247	0x3e5ebc9a	0.21751633
248	0x3ebf90b9	0.37415102
249	0xbe8eb535	-0.27872625
250	0x3e877f28	0.264642
251	0x3de04bb0	0.10951936
252	0xbe2c6753	-0.1683629
253	0xbe80e4a2	-0.25174433
254	0x3e8385cb	0.25688013
255	0xbe30cdf4	-0.17266065

cnn_layers2.0.bias f4 [10]
0	0xbd37a424	-0.04483427
1	0x3e6d904a	0.23199573
2	0x3f62a964	0.8853972
3	0xbed5ac3c	-0.41732967
4	0x3d06c8fc	0.032906517
5	0x3f0eb592	0.55745804
6	0x3eb8b1dc	0.36073196
7	0xbdb2828c	-0.08716306
8	0x3f84ebb9	1.0384437
9	0x3df3304a	0.11874445

cnn_layers2.2.weight f4 [10, 10, 3, 3]
0	0xbe62108b	-0.22076623
1	0x3da025f1	0.07819737
2	0x3d32198e	0.043481402
3	0x3de2a236	0.110660955
4	0xbcb3a647	-0.021929873
5	0x3c0587b2	0.008150028
6	0xbe22d5d3	-0.1590188
7	0xbd85c18c	-0.06531057
8	0xbe194e38	-0.14971244
9	0xbe4bb981	-0.19894983
10	0x3e19223e	0.14954469
11	0xbda89a1f	-0.08232521
12	0xbebaae79	-0.36461237
13	0x3e08754d	0.13325997
14	0xbedda418	-0.43289256
15	0xbdfec9fa	-0.12440868
16	0x3e27e88e	0.16397306
17	0xbebb8c21	-0.36630347
18	0x3e5e466b	0.2170655
19	0x3dbf2568	0.093333066
20	0xbd3674e5	-0.044545073
21	0xbd81294e	-0.06306706
22	0x3eba6bbd	0.36410323
23	0xbe59bdfd	-0.21263881
24	0x3f071a48	0.52774477
25	0xbe7e5ca5	-0.24840029
26	0xbe7672e6	-0.24067268
27	0xbe6da15b	-0.23206083
28	0x3ce3749d	0.027765566
29	0xbd53496e	-0.0515837
30	0x3d303978	0.043023556
31	0xbdbd6df6	-0.09249489
32	0x3d7dc692	0.06195695
33	0x3d83dc9d	0.06438563
34	0x3de01fbe	0.10943554
35	0x3d84c517	0.064829044
36	0xbe832dee	-0.2562098
37	0xbf031bc8	-0.51214266
38	0xbea11378	-0.31460166
39	0xbe0ab643	-0.1354609
40	0xbe7f4c25	-0.2493139
41	0xbef1d689	-0.4723399
42	0xbd98b63b	-0.07456633
43	0x3d9c891c	0.07643339
44	0x3dfe264b	0.124096476
45	0xbd73f014	-0.05955513
46	0xbeb3674c	-0.35039747
47	0x3d896d0e	0.06710254
48	0x3dbbdee9	0.09173376
49	0xbf50fa84	-0.81632257
50	0xbd9b2eed	-0.0757731
51	0xbe09fd3f	-0.13475512
52	0xbf3c030a	-0.7344214
53	0x3ed6cc24	0.41952622
54	0xbe6590a7	-0.22418462
55	0xbe807b4c	-0.25094068
56	0xbe2a676c	-0.16641015
57	0xbe8ad8a8	-0.2711842
58	0x3e5fce88	0.21856129
59	0xbddffd3a	-0.10936971
60	0xbe8652d0	-0.26235056
61	0x3e9a4ffb	0.30139145
62	0x3e8d93db	0.27651867
63	0x3d395879	0.04525039
64	0xbd8cb45f	-0.068703406
65	0xbf1c47eb	-0.6104724
66	0x3ea78256	0.32716626
67	0x3e131c06	0.14366159
68	0xbf39e6d3	-0.72617835
69	0x3e71fdda	0.23631993
70	0xbdaa1e51	-0.08306564
71	0xbea9c823	-0.33160505
72	0x3f18d691	0.597024
73	0x3e04f0b5	0.12982447
74	0x3bb68583	0.005570115
75	0xbeed5af1	-0.46358445
76	0xbf21ca31	-0.63199145
77	0xbe097d12	-0.13426617
78	0xbf24403b	-0.6416051
79	0xbecc9973	-0.39960822
80	0xbdedd4b4	-0.116128355
81	0x3e5f145c	0.2178511
82	0x3de3f19a	0.11130066
83	0x3da394c5	0.0798736
84	0x3e631e11	0.22179438
85	0xbd1c8d15	-0.038220484
86	0xbe60e5a5	-0.21962602
87	0xbe79d9de	-0.24399516
88	0xbe1292d4	-0.14313823
89	0xbe72cc7b	-0.23710816
90	0xbcd8785e	-0.026424583
91	0x3d5cb266	0.05388107
92	0xbe54d83a	-0.20785609
93	0xbe0bfe1e	-0.13671157
94	0x3edb7c24	0.4286815
95	0xbe416627	-0.18886624
96	0x3d9a58bc	0.07536456
97	0xbbd4e47e	-0.006496965
98	0xbda1e68c	-0.079053015
99	0x3d9af1d1	0.07565654
100	0x3e6d04b8	0.23146331
101	0xbdb8b862	-0.09019543
102	0x3f15c5ce	0.5850495
103	0xbe2fdaec	-0.17173356
104	0xbea214fb	-0.31656632
105	0xbeb7aaa2	-0.3587237
106	0xbe68e06a	-0.22741857
107	0xbe81f476	-0.2538182
108	0xbe079eb4	-0.13244134
109	0x3f078b08	0.5294652
110	0x3ea8dd32	0.3298126
111	0x3eda177d	0.42596045
112	0xbe2e4cc9	-0.17021479
113	0xbe77d29c	-0.24201435
114	0xbeefa7c3	-0.4680768
115	0xbed1caca	-0.40975028
116	0x3b8feadc	0.004392011
117	0xbe38fea8	-0.18065894
118	0xbe22df25	-0.15905435
119	0x3d5d5cdf	0.054043647
120	0x3e8a8d1b	0.2706078
121	0xbe74d20f	-0.23908256
122	0xbe7407aa	-0.23831049
123	0x3c0a0fda	0.008426631
124	0xbe1c7b0b	-0.15281312
125	0x3d8c0336	0.0683655
126	0x3dab1404	0.08353427
127	0xbdda4c91	-0.10659135
128	0x3e026cd0	0.12736821
129	0x3d9277ee	0.07151781
130	0xbe20414c	-0.15649909
131	0x3da96d31	0.0827278
132	0xbd4badc7	-0.049726274
133	0x3e1fac16	0.1559299
134	0x3e1b2ed2	0.1515458
135	0x3e3ddccf	0.18541263
136	0x3dc57a65	0.096424855
137	0x3d01f693	0.031729292
138	0xbc64b7b4	-0.013959814
139	0xbf014fca	-0.50512373
140	0xbebce307	-0.36891958
141	0xbe0ba3f3	-0.1363676
142	0x3dc3759c	0.095439166
143	0x3e655e1b	0.2239918
144	0x3bedb1f1	0.0072538783
145	0xbbbfe240	-0.0058558285
146	0xbdc877d9	-0.09788484
147	0xbed9dba4	-0.42550385
148	0xbe11b8dc	-0.14230675
149	0xbe78c67e	-0.24294469
150	0x3d8f4965	0.06996421
151	0x3f54fcad	0.8319805
152	0xbe1be6ba	-0.15224734
153	0x3e9d1ab5	0.30684438
154	0x3c8b34b0	0.016992897
155	0x3d00e84a	0.031471528
156	0x3d990d55	0.07473246
157	0xbef2f6c1	-0.47453883
158	0x3e3fba55	0.18723424
159	0x3e55672b	0.20840137
160	0xbebb94fb	-0.366371
161	0x3e81ac31	0.25326684
162	0x3e735952	0.23764542
163	0xbe61af3c	-0.22039503
164	0xbea639d8	-0.32466006
165	0xbeab6dc6	-0.33482188
166	0x3e99dec4	0.3005277
167	0xbd52518a	-0.051347293
168	0xbe75148a	-0.23933616
169	0xbe652cb2	-0.22380331
170	0x3e667770	0.225065
171	0x3d70b979	0.05877063
172	0x3e9f832f	0.31154773
173	0x3e96fc6d	0.2948946
174	0x3a908c9d	0.0011028234
175	0xbdfb8519	-0.12281246
176	0x3e57c686	0.21071824
177	0xbe83527a	-0.25648862
178	0xbeabed39	-0.33579424
179	0xbe32029c	-0.17383808
180	0x3d3dd677	0.046347108
181	0x3da60f03	0.08108332
182	0xbedac713	-0.42730007
183	0x3e109302	0.14118579
184	0xbe73fd5b	-0.23827116
185	0xbe3b3044	-0.1828013
186	0x3dc30cb1	0.09523905
187	0xbd8e13eb	-0.06937393
188	0x3df80332	0.121099845
189	0x3cd6fff6	0.026245099
190	0xbe241121	-0.16022159
191	0xbe2e6fad	-0.17034788
192	0xbd8b32af	-0.067967765
193	0xbd497234	-0.04918118
194	0x3e4198d5	0.18905957
195	0xbec6d1a3	-0.38831815
196	0xbc2ab341	-0.010418714
197	0x3e58a81b	0.21157877
198	0x3e69e83f	0.22842501
199	0xbe130a0d	-0.14359303
200	0xbf2373b3	-0.6384842
201	0x3d69260f	0.05692106
202	0x3e282175	0.16419013
203	0xbeaa7cf3	-0.33298454
204	0x3dea17e9	0.11430342
205	0xbe159daa	-0.14610925
206	0xbe3551e8	-0.17707026
207	0xbea1f492	-0.31631905
208	0xbed055cc	-0.40690458
209	0xbc17065c	-0.009217825
210	0xbe2de821	-0.16983081
211	0xbd74ccd5	-0.059765656
212	0xbe1e3548	-0.15450013
213	0x3cdfcd03	0.027319437
214	0xbe7137db	-0.23556463
215	0xbe68b661	-0.22725822
216	0x3d5cdaff	0.05391979
217	0xbd494b79	-0.049144242
218	0x3d371ab3	0.044703197
219	0xbc2b2887	-0.010446674
220	0x3d870367	0.06592446
221	0xbe1fada2	-0.1559358
222	0xbc25f672	-0.010129558
223	0x3c9033bf	0.0176028
224	0x3d79272f	0.060828384
225	0x3d4e0add	0.05030333
226	0x3e410894	0.18850929
227	0xbed25449	-0.4107993
228	0x3ed1999a	0.409375
229	0x3d312557	0.0432485
230	0x3d09e629	0.033666763
231	0xbe622fc5	-0.22088535
232	0xbdb1c787	-0.08680635
233	0xbd3cd631	-0.046102706
234	0xbeac06d6	-0.33598965
235	0xbe398d0c	-0.18120211
236	0x3e7753e3	0.24153094
237	0xbe2ea45e	-0.17054889
238	0xbee2fff8	-0.44335914
239	0xbe1f263f	-0.15541933
240	0x3df2d8b2	0.118577376
241	0xbe37594a	-0.17905155
242	0xbd8d7540	-0.06907129
243	0x3d84aeee	0.06478678
244	0x3ed9ae9f	0.42516038
245	0xbd9534e6	-0.0728548
246	0xbcedb1fb	-0.029015532
247	0x3daf2761	0.08552433
248	0xbe5ffb2a	-0.21873155
249	0xbeb0e0c7	-0.34546492
250	0xbe2f1769	-0.17098774
251	0x3e22ba3d	0.15891357
252	0xbe3d0c6c	-0.1846177
253	0xbe81148d	-0.25210992
254	0x3ce3312e	0.027733412
255	0xbeaae3f4	-0.3337704

cnn_layers2.2.bias f4 [10]
0	0x3ed69d36	0.41916817
1	0xbf417e40	-0.7558327
2	0x3e9ad0eb	0.30237517
3	0xbe140447	-0.14454757
4	0xbe4d0811	-0.20022608
5	0xbc99ca76	-0.018773299
6	0xbc446cc6	-0.011988824
7	0xbc92871d	-0.017886693
8	0x3e1bc4be	0.1521177
9	0x3e328fad	0.1743762

classifier_layer.1.weight f4 [10, 490]
0	0x3d116fd1	0.035507027
1	0xbed916b0	-0.42400122
2	0x3e660c23	0.22465567
3	0x3d017d67	0.031613734
4	0x3eec5480	0.46158218
5	0x3e5c9ebe	0.2154493
6	0x3ea75451	0.32681516
7	0xbe292228	-0.16516936
8	0x3e662975	0.22476752
9	0x3be72a44	0.007054599
10	0xbe6d1f5f	-0.23156498
11	0xbda9788b	-0.08274945
12	0x3ea02a9d	0.3128251
13	0x3e670fea	0.22564664
14	0x3dd7859a	0.10523529
15	0x3e03c15a	0.12866727
16	0xbe3bd63a	-0.1834344
17	0xbed4d18a	-0.41566116
18	0x3cb59fd3	0.022170937
19	0xbeca7cc5	-0.39548317
20	0x3e221af9	0.15830602
21	0xbe7ed3c4	-0.2488547
22	0x3e608b86	0.21928224
23	0x3b9dd0e7	0.004816163
24	0x3d4fff64	0.05078067
25	0x3e979a89	0.29610088
26	0x3e4daea6	0.20086154
27	0xbe62e9f5	-0.2215956
28	0xbe4f608c	-0.20251673
29	0x3dfd46b3	0.123670004
30	0x3dee265e	0.11628412
31	0xbe5eb16d	-0.2174737
32	0x3de928b9	0.1138472
33	0xbd327026	-0.043563984
34	0xbe40b760	-0.18819952
35	0xbe26de3a	-0.1629571
36	0x3db18281	0.0866747
37	0xbe508fa2	-0.20367292
38	0xbdbc851c	-0.09205076
39	0xbe45a35c	-0.19300598
40	0xbd7311b5	-0.05934306
41	0xbe2d9f77	-0.16955362
42	0x3db4c2ee	0.088262424
43	0xbe86ac4d	-0.2630333
44	0xbde4eaea	-0.11177619
45	0xbe459f85	-0.19299133
46	0xbe3e7f7d	-0.1860332
47	0x3e213b54	0.15745288
48	0xbda80643	-0.08204319
49	0xbdfb9fae	-0.12286316
50	0xbdb3302c	-0.087494224
51	0x3ec89922	0.3917933
52	0xbe929abd	-0.2863368
53	0x3da8093f	0.082048886
54	0xbd91a8f3	-0.07112303
55	0xbddf44c5	-0.109017886
56	0xb8424dc8	-4.6325644e-05
57	0xbe803443	-0.25039873
58	0x3dc557e2	0.09635903
59	0x3d249b01	0.040186886
60	0x3d88fc75	0.06688777
61	0x3c008fa4	0.007846747
62	0x3c9d596d	0.01920768
63	0x3ddb31c2	0.1070285
64	0xbd8d9507	-0.0691319
65	0x3ba9da5f	0.0051835026
66	0x3ce8f9a6	0.028439354
67	0x3bd73cb9	0.006568518
68	0x3e4598a6	0.19296512
69	0xbda3b484	-0.07993415
70	0xbd8791ff	-0.066196434
71	0xbd52ad11	-0.05143458
72	0xbe903399	-0.28164366
73	0xbe9e08e5	-0.3086616
74	0x3caeb17f	0.021324871
75	0x3e012233	0.12610702
76	0x3d301252	0.04298622
77	0x3e6ac91e	0.22928283
78	0x3ddc4206	0.107547805
79	0xbd955945	-0.072924174
80	0xbd3d9797	-0.046287145
81	0x3dc3bf6a	0.09557994
82	0x3aa9f37d	0.0012966242
83	0xbd87985d	-0.06620858
84	0xbd34da25	-0.04415335
85	0xbbcb3751	-0.0062016626
86	0xbe0f1c6b	-0.13975684
87	0xbe3fa0e9	-0.18713726
88	0xbd7a8bff	-0.061168667
89	0xbe015f06	-0.12633905
90	0xbd935544	-0.071939975
91	0xbc3968a2	-0.01131645
92	0xbe30e7f8	-0.17275989
93	0x3dcb6ad6	0.09932487
94	0xbe0bf0ab	-0.13666026
95	0x3e7e3295	0.24823983
96	0x3e0e7994	0.13913566
97	0xbdbcaace	-0.09212266
98	0x3e2d6dca	0.16936412
99	0xbd6b0323	-0.05737604
100	0x3eb201e4	0.34767067
101	0xbd1f903f	-0.038955923
102	0x3ed64aa2	0.41853815
103	0x3da44376	0.0802068
104	0x3c959242	0.018258218
105	0x3de41d37	0.11138385
106	0x3e934d03	0.28769693
107	0xbcea9f61	-0.02864045
108	0xbe8d7442	-0.2762776
109	0xbd62c426	-0.055362843
110	0x3d8f37e1	0.0699308
111	0x3d711ea2	0.058867104
112	0x3e9b251a	0.30301744
113	0x3eb3c5a3	0.35111722
114	0xbbb03f65	-0.005378651
115	0xbe39f657	-0.18160377
116	0x3eef8440	0.46780586
117	0xbdad2b83	-0.08455565
118	0xbe8155b5	-0.25260702
119	0x3e5cc420	0.21559191
120	0xbd397cbf	-0.045284983
121	0xbd8e9920	-0.069628
122	0xbdee3c39	-0.1163258
123	0xbd9fef05	-0.07809261
124	0x3cc1e23d	0.02366745
125	0xbe19c3d5	-0.1501611
126	0xbe856398	-0.26052547
127	0xbdce2093	-0.10064807
128	0x3d544d07	0.05183127
129	0xbcead472	-0.028665755
130	0xbe421ce0	-0.18956327
131	0xbd2d2cd9	-0.0422791
132	0xba813059	-0.0009856328
133	0x3db1aa05	0.08675007
134	0xbe26031f	-0.16212128
135	0x3dbc88fb	0.092058145
136	0xbc5635d8	-0.013074361
137	0x3c7c4db6	0.015399387
138	0xbe80eb2c	-0.25179422
139	0x3d6ecd08	0.058301
140	0xbe8d63bb	-0.2761515
141	0x3def26e9	0.116773434
142	0x3c46408e	0.012100352
143	0xbe588adb	-0.21146719
144	0x3e712f2d	0.23553152
145	0xbe458dd6	-0.19292387
146	0x3d9a9947	0.075487666
147	0xbe335942	-0.17514518
148	0x3e44a797	0.19204555
149	0xbdfc39e6	-0.12315731
150	0xbe085973	-0.13315372
151	0x3d2ecb2c	0.04267423
152	0x3c9fc630	0.019503683
153	0xbe054839	-0.13015832
154	0xbc98b268	-0.018639758
155	0xbe463e82	-0.19359782
156	0xbe235bda	-0.15953007
157	0xbdeffb07	-0.117178015
158	0x3dcf3a45	0.10118536
159	0x3cdaedc2	0.0267247
160	0x3c3af2b8	0.011410408
161	0xbdc44779	-0.09583945
162	0x3e6f43b3	0.23365669
163	0x3d58c169	0.052918825
164	0x3e60f6d4	0.21969157
165	0x3e1c73b6	0.15278515
166	0xbda95974	-0.08269015
167	0x3ec2f6a4	0.38078797
168	0xbe77357d	-0.24141498
169	0x3ea3b699	0.31975248
170	0xbcf368ef	-0.029713122
171	0x3da79530	0.08182752
172	0x3e776ba1	0.24162151
173	0xbebc430f	-0.36769912
174	0x3e770aa2	0.2412515
175	0x3dced69b	0.100995265
176	0x3e4d26de	0.20034358
177	0xbce9dd24	-0.02854783
178	0xbddf0842	-0.10890247
179	0xbdacf8aa	-0.084458664
180	0xbedfd3d2	-0.43716294
181	0x3d02ce6b	0.031935137
182	0x3dc562fc	0.096380204
183	0x3ef7ac43	0.48373613
184	0x3d1b8cb0	0.037975967
185	0x3d38e362	0.045138724
186	0x3d84b841	0.06480456
187	0x3c999881	0.018749477
188	0xbd3607a1	-0.04444087
189	0x3dffca8d	0.12489805
190	0x3e489d33	0.19591217
191	0xbc35b98b	-0.0110916
192	0x3cd668ef	0.026173083
193	0x3e86a7ea	0.26299983
194	0x3e0c1bf2	0.13682535
195	0xbe63532d	-0.22199698
196	0xbe27b383	-0.16377072
197	0xbcc809fb	-0.024418822
198	0x3e96c551	0.29447415
199	0x3dec5aa7	0.11540728
200	0xbe369469	-0.17830051
201	0x3ea7c819	0.3276985
202	0x3cdadfd6	0.026718061
203	0x3d47e037	0.048797812
204	0x3cebb5b4	0.028773166
205	0xbe283dad	-0.16429777
206	0x3ecc6526	0.3992092
207	0x3d76bb25	0.06023707
208	0x3c5c20e8	0.01343558
209	0xbbf75ffa	-0.007549283
210	0xbdd346e3	-0.10316255
211	0x3ddc95c5	0.10770754
212	0xbccc9f84	-0.024978407
213	0x3e8645f2	0.2622524
214	0x3dead654	0.11466661
215	0x3dd0e744	0.102003604
216	0x3eb45730	0.3522277
217	0x3e2362a7	0.15955602
218	0x3ec3d7a2	0.38250452
219	0xbeaa830d	-0.3330311
220	0x3e94db2f	0.29073474
221	0xbe8655b6	-0.26237267
222	0x3d7771ae	0.060411148
223	0x3e80cee4	0.25157845
224	0x3da10151	0.07861579
225	0x3d3ccb1c	0.046092138
226	0xbd911c1b	-0.07085439
227	0x3e1fe8c5	0.15616138
228	0x3e6faf2d	0.23406668
229	0xbd62b592	-0.05534894
230	0x3e2ad634	0.16683275
231	0xbd9f3db0	-0.07775438
232	0xbdc4a735	-0.09602205
233	0x3d7f1ef6	0.062285386
234	0x3e4b3e1a	0.19847909
235	0xbc8a676d	-0.01689502
236	0xbd6d7fe5	-0.057983298
237	0x3bc8edf0	0.00613188
238	0xbac4f638	-0.0015026992
239	0x3e091cf8	0.13389957
240	0xbd97e992	-0.07417597
241	0xbda89ed0	-0.08233416
242	0x3cbb3d4d	0.022856379
243	0xbb999266	-0.0046866415
244	0xbe86decc	-0.26341856
245	0xbc68e70c	-0.014215242
246	0x3d0ec8fd	0.034859646
247	0xbde35401	-0.11100007
248	0x3e4a76e3	0.19771914
249	0x3e1cd288	0.15314686
250	0x3d46f97b	0.048577767
251	0x3e3e6989	0.18594946
252	0x3dbc50c2	0.09195091
253	0xbe37cc81	-0.17949106
254	0xbe743419	-0.23847999
255	0xbcd71add	-0.026257927

classifier_layer.1.bias f4 [10]
0	0x3ecfdafc	0.4059676
1	0xbe83bc0f	-0.25729415
2	0x3f363883	0.7117998
3	0x3e962519	0.29325178
4	0xbf55c4f4	-0.8350365
5	0xbed7fd65	-0.42185512
6	0xbd12a0f1	-0.035798017
7	0x3e9f6a97	0.3113601
8	0x3cfa4bcf	0.030553726
9	0xbe75917b	-0.23981278
